…
Colocations handled automatically by placer.
WARNING:tensorflow:From /Users/liulili/Library/Python/3.5/lib/python/site-packages/tensorflow/python/keras/layers/core.py:143: calling dropout (from tensorflow.python.ops.nn_ops) with keep_prob is deprecated and will be removed in a future version.
Instructions for updating:
Please use `rate` instead of `keep_prob`. Rate should be set to `rate = 1 - keep_prob`.
_________________________________________________________________
Layer (type)                 Output Shape              Param #   
=================================================================
conv2d (Conv2D)              (None, 32, 32, 32)        320       
_________________________________________________________________
max_pooling2d (MaxPooling2D) (None, 16, 16, 32)        0         
_________________________________________________________________
conv2d_1 (Conv2D)            (None, 16, 16, 64)        18496     
_________________________________________________________________
max_pooling2d_1 (MaxPooling2 (None, 8, 8, 64)          0         
_________________________________________________________________
dropout (Dropout)            (None, 8, 8, 64)          0         
_________________________________________________________________
flatten (Flatten)            (None, 4096)              0         
_________________________________________________________________
dense (Dense)                (None, 680)               2785960   
_________________________________________________________________
dropout_1 (Dropout)          (None, 680)               0         
_________________________________________________________________
dense_1 (Dense)              (None, 10)                6810      
=================================================================
Total params: 2,811,586
Trainable params: 2,811,586
Non-trainable params: 0
_________________________________________________________________
Train on 18000 samples, validate on 2000 samples
WARNING:tensorflow:From /Users/liulili/Library/Python/3.5/lib/python/site-packages/tensorflow/python/ops/math_ops.py:3066: to_int32 (from tensorflow.python.ops.math_ops) is deprecated and will be removed in a future version.
…
